wake_word_model_3.tflite (tflite, 71164 bytes, 9 tensors)

sequential/conv2d/BiasAdd/ReadVariableOp f4 [32]
000000 5b 54 8a 3b 39 7e b3 3c 8e a3 c1 3d 20 b7 ef 3c
       0.0042214817 0.021910774 0.09455024 0.029262125
000010 f0 89 17 bd 12 39 b0 bd 74 ef 04 be f4 cb 59 bd
       -0.03699678 -0.08604635 -0.12981969 -0.05317302
000020 2b aa 17 3d fc 4c 3c bd b5 c6 aa 3c ae 4f ba bd
       0.03702752 -0.045971856 0.020846704 -0.09097229
000030 f1 63 c3 bd c4 3e b2 bc 89 1e be bd d4 ae 9e 3d
       -0.09540547 -0.021758445 -0.09283168 0.077481896
000040 4f 9e f6 bc cd 43 96 bd 5c e5 85 bd c0 5b 78 3d
       -0.030104784 -0.07337151 -0.065378875 0.060634375
000050 f4 00 b8 bd 0b 6a 9a 3d 1e f8 7b bd 80 a1 4c 3d
       -0.08984557 0.07539757 -0.06151592 0.049958706
000060 68 ef 78 3d b4 ae 0f 3d d5 ab b5 3d 6f 61 9d 3d
       0.06077519 0.03507872 0.08870665 0.076845996
000070 5c 6b 6e bd 78 52 42 3e 81 a7 bb bd c0 bb b4 3c
       -0.058207855 0.18976772 -0.09162808 0.022062182

sequential/conv2d_1/BiasAdd/ReadVariableOp f4 [32]
000000 0d 09 9b 3d 79 1e 38 3d 10 8d 1a 39 68 46 03 3e
       0.07570086 0.044950936 0.00014739134 0.12819827
000010 91 46 3f bd 98 82 8e 3d c1 31 b0 bc 39 52 52 bd
       -0.046698157 0.069585025 -0.0215081 -0.051347945
000020 4f c5 a8 3d 21 70 c4 3b 9d 1c eb bd ae d9 07 3b
       0.08240759 0.005994812 -0.11480067 0.0020729112
000030 00 a2 3d bd b4 bd 4b 3d fb 73 4d 3d 00 6a c5 bd
       -0.046297073 0.049741462 0.050159436 -0.096393585
000040 7c ac 24 3d 40 43 03 be 93 e3 60 3a 8e 53 6f bd
       0.040203556 -0.12818623 0.0008578833 -0.058429293
000050 f2 87 95 bc c0 a1 f2 bd ec 07 41 bc 92 45 1a bd
       -0.0182533 -0.118472576 -0.011781674 -0.037664004
000060 32 2f 98 3c d3 40 cb bd 09 71 81 39 e9 d8 bd bc
       0.018577192 -0.099244736 0.00024689015 -0.02317472
000070 df 56 b0 3d f8 35 a6 3d 19 b6 2b bd fc 11 43 bd
       0.08610319 0.081157625 -0.04192171 -0.047624573

sequential/conv2d_2/BiasAdd/ReadVariableOp f4 [64]
000000 44 a0 22 bb 6d 04 ce bc 4c 08 af bc 0d cd 26 bc
       -0.0024814764 -0.025148595 -0.021366261 -0.010180724
000010 2f a4 f6 bc 16 65 95 bc a3 4d e5 bc 53 2b 9d bc
       -0.030107586 -0.018236678 -0.027991122 -0.019185698
000020 f0 7b 91 bb 4b e1 0b bd 51 18 be bc b7 3d 39 3c
       -0.0044398233 -0.034150403 -0.023204954 0.011306218
000030 b8 f1 2d bd 70 88 02 bc 7f cf 30 bd e9 f0 29 bc
       -0.04246685 -0.0079671 -0.043166634 -0.010372379
000040 92 75 99 3c 63 2f 3b bb 8c ca 5d bc de df b9 bc
       0.01873282 -0.002856218 -0.0135370605 -0.022689756
000050 14 76 a4 3c cb 55 56 3c bf 0b 19 3c e3 4e 69 bd
       0.020075835 0.013081978 0.009341179 -0.056959998
000060 c3 24 e4 bc fe 77 a1 bc f7 ac 05 bd a4 ec 03 bc
       -0.02784956 -0.019710537 -0.032635655 -0.008052025
000070 20 a0 32 bd 06 43 c3 3c 72 9f 72 bc d4 6c b9 bb
       -0.04360974 0.02383567 -0.014808523 -0.0056587253
000080 b4 04 3e bd 7b 58 04 3d 7f 2c b1 bc 2d 56 70 bb
       -0.046391204 0.032310944 -0.021627663 -0.0036672459
000090 e2 a4 b2 bc a5 b4 c7 bc b1 1d 93 3c f9 99 2b bd
       -0.021807138 -0.02437813 0.017958494 -0.041894887
0000a0 8f ae fc bc 61 49 21 bd 41 60 25 bc bc 49 0c bd
       -0.030844955 -0.03937662 -0.0100937495 -0.034250006
0000b0 3c 3e 92 3c 61 be 14 bd 37 a1 d9 3c 1d bd 00 bd
       0.017851941 -0.036314372 0.026566131 -0.031430352
0000c0 67 4d e0 3c 47 ed 72 3c 0f eb e8 bc 2d 96 1f 3d
       0.027380658 0.014827079 -0.028432397 0.03896158
0000d0 59 ed 8e b9 9c 8f 90 3c 83 8c c4 bc f1 00 8f bd
       -0.00027261188 0.017646603 -0.023992782 -0.069826014
0000e0 2c 83 0a 3d 87 74 49 3c 2a f9 0d bd d8 c9 50 3c
       0.0338165 0.012295849 -0.03466145 0.012743436
0000f0 f4 e3 3d bd c2 e5 3d bc 42 f8 1b 3c 85 05 af bc
       -0.04635997 -0.011590423 0.0095196385 -0.021364937

sequential/conv2d/Conv2D f4 [32, 2, 2, 1]
000000 8c 9b 60 3e f3 68 3d 3e 91 6c 5e 3e a9 a0 39 3c
       0.21934336 0.18497066 0.21721102 0.011329808
000010 f6 32 07 3e 22 ea 14 3e a5 db 0f be f7 ab e3 bd
       0.13203034 0.1454244 -0.14048631 -0.11116784
000020 b1 d6 70 3e fe a3 2f be b8 b0 0f be 1d 86 ae 3d
       0.23519398 -0.17152402 -0.14032257 0.08521674
000030 96 13 67 be c3 a8 60 3d cf 96 5b bc 6c ec 3a 3e
       -0.22566065 0.054848444 -0.013402655 0.1825425
000040 95 a9 31 3e cb 83 d8 3d 58 22 f0 bc 2c 34 54 be
       0.17349847 0.105720125 -0.029313251 -0.20723027
000050 6b 64 91 bd 7c 92 45 bd 0b 0f 02 3e 2a 47 4c bd
       -0.07099231 -0.0482354 0.12701051 -0.049872555
000060 0a 48 37 be 12 58 2f 3e b6 cd b0 3c ab 22 a8 bc
       -0.17898574 0.1712344 0.021582466 -0.020524343
000070 69 bb 54 3e 5d 83 6c 3e a6 f6 6a 3d 6e 51 4f be
       0.20774616 0.23096986 0.05736413 -0.20245907
000080 47 f7 34 be f6 07 9e 3d 85 bc 09 3e 0b 15 22 bc
       -0.17672454 0.07716362 0.1345082 -0.009892712
000090 0a ac 9f 3e 2d 93 0e 3d 00 2d 95 bd a8 1f fc bc
       0.31185943 0.034808327 -0.07283974 -0.030776814
0000a0 55 c1 4a bb ec 86 32 bd 3a 21 7e 3e f2 47 93 bd
       -0.0030937989 -0.043585703 0.24817362 -0.07191457
0000b0 dd 90 73 3e f5 57 0a 3e de a0 fb 3d 5f 68 60 3d
       0.2378573 0.13510115 0.12286542 0.054787036
0000c0 4c 52 e5 bd 54 02 1d 3e ae 0c 22 be c0 7d 9d be
       -0.111973375 0.1533292 -0.1582515 -0.30760002
0000d0 6e 98 2e 3e 4c b3 8a 3e 69 7d 8c 3e a8 0d d9 bb
       0.17050335 0.27089918 0.2743943 -0.0066239424
0000e0 5d 41 fe bd bb 73 a1 bd 8a ae 15 bc 7e 58 60 be
       -0.12414811 -0.07883402 -0.009135852 -0.21908757
0000f0 48 6b af 3e 5e 87 9c 3e d1 a7 82 be 6a 2b 16 bc
       0.34261537 0.30572027 -0.2551866 -0.009165624
000100 e4 b2 60 be 4d d3 69 3e 0e 3f ee 3c e4 e8 b9 bc
       -0.21943241 0.22834511 0.029082801 -0.022694059
000110 4b 18 4c 3b d6 c4 20 be ad c2 a3 bd 50 92 0e bd
       0.003114241 -0.15700087 -0.07996116 -0.034807503
000120 cd 89 40 3e aa b0 5a be f5 4a fc 3d 1e 95 ca bd
       0.18802567 -0.21356454 0.123189844 -0.09891723
000130 25 91 65 be 4c 76 1f 3e f0 24 6e 3d d4 2a 30 3e
       -0.2241865 0.1557247 0.058140695 0.17203838
000140 e9 5a 4c bd a6 47 4a 3a 03 e3 2a be f8 84 a1 bd
       -0.049891386 0.0007716365 -0.1668816 -0.0788669
000150 d0 d1 25 3d a3 d5 f4 3d 48 85 1a be b5 ae 81 3e
       0.040483296 0.119548105 -0.15089905 0.25328603
000160 d5 9c 27 3e 9a 02 28 bc ed 03 b6 bc 94 8d 4d 3e
       0.1636842 -0.0102545265 -0.022218669 0.20073539
000170 b4 08 1b 3d be 08 48 3e 39 c1 7d 3d 7a 01 41 be
       0.037850097 0.19534585 0.06195185 -0.1884822
000180 06 0a 14 be ce 34 00 3e 75 d1 35 3c c2 7e 49 b9
       -0.14456949 0.12520143 0.011097302 -0.00019216075
000190 d9 9f d9 bd f5 db 7f be 8b c2 80 3d dc 15 47 3e
       -0.10626192 -0.2498625 0.06287106 0.19441932
0001a0 73 16 a5 bd e7 56 de 3c ea e0 6e 3e d4 24 90 3e
       -0.080609225 0.027141048 0.23327985 0.28153098
0001b0 68 21 a7 bc c0 2d 13 bb 38 fa 35 3e d2 8f d8 3d
       -0.020401672 -0.002245769 0.17771232 0.105743065
0001c0 44 b6 a7 bd 06 77 b9 3d e6 69 7d 3e a5 d8 1a be
       -0.08189061 0.09055905 0.24747428 -0.15121706
0001d0 f6 b8 04 3e 52 0d 3b 3d 86 3a 51 be f1 c1 1f 3d
       0.12961182 0.045667 -0.20432481 0.039003316
0001e0 f9 93 de bd 2c 2e b3 3d 5d 26 6b 3e 06 65 80 3e
       -0.10868067 0.08749041 0.22963853 0.25077075
0001f0 cd e2 57 bd 80 4d 3d bd 4e fe 86 3d 4f 5d 39 3d
       -0.05270653 -0.046216488 0.065914735 0.045255

sequential/conv2d_1/Conv2D f4 [32, 2, 2, 32]
000000 38 79 8a be 3e d3 05 3e 42 38 fb bd 5c 9b e7 bd
       -0.27045608 0.13068864 -0.1226659 -0.11308929
000010 61 82 2a 3e e8 34 03 3e d6 ed 71 3d 5a ed c8 bd
       0.16651298 0.12813151 0.05906471 -0.09810896
000020 4a 86 13 3e 5b 02 03 3e ba 3c 8f 3c b9 b2 77 be
       0.14406696 0.12793867 0.017485011 -0.24189271
000030 8b 4f 66 bd a1 9d 74 bd 39 b6 4c bd a6 8d 07 3d
       -0.0562282 -0.05972064 -0.04997847 0.03309407
000040 13 d0 77 3e 3a 89 a0 3d f8 31 bb 3d 28 83 0b be
       0.24200468 0.07838674 0.0914039 -0.13624251
000050 50 37 98 bd 5b 76 38 bc 6a 34 75 3e 60 45 8c bd
       -0.07432425 -0.011258687 0.23945776 -0.0684917
000060 c6 ea 8d 3c c4 51 c6 3d b0 70 1f 3e 04 a3 ac 3c
       0.017323863 0.09683564 0.1557033 0.021073826
000070 ca 05 21 be 4d 93 9d bc 4b 99 56 bd c5 e2 e7 3c
       -0.15724865 -0.019235278 -0.052392285 0.028306374
000080 06 2a c2 3d 91 f5 48 3c 9e 25 49 3e 74 14 bd 3d
       0.094806716 0.012265579 0.19643256 0.09232417
000090 6c c5 14 3e 90 b2 24 be 82 66 39 3c 7d 7f 07 3e
       0.14528435 -0.16083741 0.011315944 0.13232227
0000a0 19 2f 3d bd 22 ff 2b 3e c7 ed 62 bd 07 50 dd bd
       -0.046187494 0.16796544 -0.055402543 -0.1080628
0000b0 11 8e b6 3d 10 71 e3 bd 26 9e 25 bd 3d c6 a3 3d
       0.08913816 -0.11105549 -0.040434025 0.07996795
0000c0 16 4b 27 be a7 10 6c 3d d2 81 a6 bd 87 18 e2 bc
       -0.16337237 0.05763307 -0.0813023 -0.027599586
0000d0 63 04 3f 3e 49 e5 d4 3c c3 ab dc 3c dd ae 8a 3d
       0.18654017 0.025988238 0.026937371 0.06771634
0000e0 f9 2c 02 bd cc 5d 2e be f2 6e 1d be 87 9e d6 3d
       -0.03178117 -0.17027968 -0.15374354 0.104794554
0000f0 27 90 ed bc 3c 05 27 3e b2 ac 00 be 55 8a 65 bd
       -0.028999401 0.1631059 -0.12565878 -0.056040127
000100 c3 aa 55 bd d1 bb 60 3e 67 3b 90 bb da 94 3e be
       -0.052164804 0.21946646 -0.0044016126 -0.1861147
000110 7a f2 8e bc 21 98 4b 3d 94 66 09 be 1b 69 38 3e
       -0.017449606 0.04970563 -0.13418037 0.18008845
000120 8a e1 38 be 03 04 0e 3e 54 dc be bc fb 0b d6 3d
       -0.18054786 0.13868718 -0.02329842 0.10451504
000130 37 04 01 bd 2c 48 df 3c 8a 28 8b 3d 75 1c 9a bc
       -0.03149816 0.027256094 0.067948416 -0.018812397
000140 bb da 36 3d a1 7b ff bd b7 fc c3 bd 6c b0 fa bd
       0.04464219 -0.12474752 -0.09569686 -0.12240681
000150 5e 79 58 bd d8 61 5a 3d ee 99 17 3c 4a 88 12 bd
       -0.05285012 0.053315967 0.009253008 -0.035774507
000160 b5 63 a9 bd de 39 43 bd e3 e9 5e be 20 6b 4c be
       -0.08270971 -0.04766261 -0.21768908 -0.1996274
000170 1f 45 83 be f2 62 41 3e 8e 43 18 be 98 5b a6 bd
       -0.25638673 0.18885401 -0.1486952 -0.08122939
000180 a8 1b 4f bd b5 02 c5 3c 2f 27 dc 3d 87 d4 43 bc
       -0.050563484 0.024049142 0.10749661 -0.011952526
000190 c6 43 c4 bd 72 09 02 be bc 17 cd bc c7 fa 49 be
       -0.09583239 -0.12698916 -0.025035731 -0.1972457
0001a0 a8 a9 a3 3c c7 e5 4c 3c 86 21 71 be ef ae 4f 3e
       0.01997836 0.012505955 -0.23547944 0.20281576
0001b0 ce fe 88 bd 90 6c 4f 3e 4e 8e 95 bd e4 a5 a8 bd
       -0.06689225 0.20256257 -0.07302533 -0.08234766
0001c0 05 38 3e 3e ec 5a b4 3d da d7 7e be 31 b6 06 3c
       0.18576057 0.088064045 -0.24887028 0.008222149
0001d0 96 0c 3a 3b f8 5d d7 bd de 61 46 3e 35 f7 9a be
       0.002838885 -0.1051597 0.19373271 -0.3026673
0001e0 07 e9 ef bc ea 7c fd 3d 9c 0b 05 be 68 5f 62 be
       -0.02928592 0.12377341 -0.1299271 -0.22106707
0001f0 b5 59 25 be 84 91 56 3e 5a a7 98 3d 81 08 0c bd
       -0.16147502 0.20953947 0.07453795 -0.034187797
000200 43 da 5c bc f2 1a a9 3d 05 f2 10 be 2a dc b9 3c
       -0.013479772 0.082570925 -0.14154823 0.02268799
000210 34 dc 64 3d ce 0a 14 bd 48 f4 d1 3d 65 20 12 be
       0.055874065 -0.036143117 0.10251671 -0.1427017
000220 f0 28 b4 bd a8 c4 26 3c 0a 82 72 3b db d6 f5 bd
       -0.08796871 0.010178722 0.003700378 -0.12003871
000230 7c be 16 be 04 40 92 be 11 e2 78 3c 0a a7 37 bd
       -0.14721102 -0.28564465 0.015190617 -0.044837035
000240 11 af 9e bd 22 20 65 3d 93 09 43 bb 2c e4 f1 3d
       -0.07748235 0.055938847 -0.0029760345 0.118110985
000250 e2 ae 32 bd a3 a3 df bd 8f 69 4a be 19 79 b7 bd
       -0.043623812 -0.10919883 -0.1976683 -0.089586444
000260 46 d6 b2 3d 58 04 94 3d e3 69 ed bc 3d 56 73 3d
       0.08732276 0.07227391 -0.028981155 0.059408415
000270 e5 2f b8 3c ca d9 98 3d 03 49 db bd 89 fd 7c 3d
       0.022483775 0.07463415 -0.10707285 0.061765227
000280 80 de 60 be f9 15 f9 3d ae 92 6b 3d 85 12 7a 3d
       -0.21959877 0.12162394 0.05751293 0.061052818
000290 7b a5 2d 3d 69 d5 bf bd 84 2f 04 be 60 cb 0b 3e
       0.042394143 -0.09366877 -0.12908751 0.136518
0002a0 52 0f c1 3d 92 7d 65 bd 01 8c 10 3e e1 fc 24 be
       0.0942675 -0.056027956 0.14115907 -0.1611209
0002b0 81 56 be bd d8 84 55 be ae 82 49 3d af b3 cf 3d
       -0.09293843 -0.20851457 0.04919689 0.10141694
0002c0 4f 13 dc bd c8 01 3a be c2 31 4f be d9 8f a4 bd
       -0.1074587 -0.18164742 -0.20233825 -0.08035249
0002d0 06 88 d5 bd 01 b5 39 be 5e 5f 0b be ac 83 01 be
       -0.10426335 -0.18135454 -0.13610598 -0.12647885
0002e0 4d 83 f8 bc ec 4a f2 3b 7b dc 20 3e 47 85 d9 bd
       -0.030336047 0.0073941853 0.15709107 -0.10621124
0002f0 9c af 93 be 1c 41 1f 3d 3c f6 60 bd 9e bd 05 3e
       -0.28844917 0.038880453 -0.054922327 0.13060614
000300 14 89 a2 3d f2 21 b7 bd c3 64 91 be 06 4e 7b 3d
       0.07936302 -0.089420214 -0.28397188 0.061353706
000310 2a 4a 7f bd f0 19 b8 bd 96 5b d1 bd 7e e9 82 be
       -0.062326588 -0.08989322 -0.10222547 -0.25568765
000320 5d 69 c8 3d aa 88 09 be 37 60 05 bd bf fd b5 bc
       0.097857215 -0.1343104 -0.03256246 -0.022215722
000330 80 ec a3 3d 6f 0e 00 3e 55 3d 59 3d 3d 8e 06 be
       0.08004093 0.12505506 0.053037006 -0.13140197
000340 80 ad 67 bd c7 42 af bd 6e 07 ab be 25 9d 5f 3d
       -0.056561947 -0.08557659 -0.33404106 0.054593224
000350 64 ab 38 bd 24 e4 be 3d fc 25 8f 3d dd 85 02 be
       -0.045085326 0.09320858 0.06989667 -0.12746377
000360 44 b6 35 3d 84 a2 85 3c 14 2a ed 3c b6 c6 1c 3e
       0.044363275 0.016312845 0.028950728 0.15310177
000370 99 c1 a3 ba 3f 09 86 bd 62 7a a6 bd 5f f5 2c 3d
       -0.001249361 -0.06544732 -0.081288114 0.04222619
000380 de 87 65 bd 19 12 4d 3d bc c9 52 3d 99 1a 88 3c
       -0.056037776 0.050066087 0.05146192 0.016614245
000390 09 23 46 bc ab 3b 8d 3d bc 01 65 bc ab 4f 36 be
       -0.012093314 0.068961464 -0.013977464 -0.17803828
0003a0 8f b7 e5 3c 9c db 06 bb bd 52 0b 3e 92 e4 19 3d
       0.02804163 -0.0020577675 0.13605781 0.037571497
0003b0 9e 58 8d bd 1e bf 82 3c 90 44 ec 3d 52 9f 88 be
       -0.06901668 0.015960272 0.11536515 -0.26684052
0003c0 ca bb 9f bd 48 2a fa 3d fc c9 c5 bd 39 db 58 bd
       -0.0779949 0.12215096 -0.09657666 -0.052943442
0003d0 b8 e4 04 be f3 60 ce 3d 6e 64 90 3d 38 5d d7 bd
       -0.12977874 0.10077085 0.070504054 -0.10515827
0003e0 0a e7 f7 bc a2 24 26 3d 36 33 2e 3e 88 76 c0 bd
       -0.030261535 0.04056228 0.17011723 -0.09397608
0003f0 90 9a a6 3d 96 cd 09 be f4 bb cf 3d 84 e2 91 3d
       0.08134949 -0.13457331 0.10143271 0.071232826

sequential/conv2d_2/Conv2D f4 [64, 2, 2, 32]
000000 e1 e0 67 3d dc 2a ca bd 40 c5 ea bb 65 2c 7c bd
       0.056610946 -0.09871456 -0.0071646273 -0.061565775
000010 9f 25 0a 3e a5 9c b1 3d b0 cc 66 bd 34 69 19 bd
       0.13490914 0.08672456 -0.05634755 -0.037453845
000020 58 68 ee 3c 03 ad cc bd f5 bd fe bd 8c 59 07 bc
       0.02910249 -0.09993937 -0.12438575 -0.008261096
000030 9c d2 c8 bd a9 2f eb 3d 4f e8 07 ba 28 82 03 be
       -0.098057956 0.114837 -0.0005184458 -0.1284262
000040 72 6b 7c 3d 55 12 12 3d af ab 16 3e 36 d2 29 3e
       0.061625905 0.035662014 0.1471393 0.16584095
000050 08 a7 6d 3d e1 54 ae 3d cb aa d6 3d 18 b3 f3 3d
       0.05802062 0.08512283 0.10481795 0.11899394
000060 e9 02 d9 3d 12 eb c1 3c a4 bd ee 3d e7 44 62 3c
       0.10596258 0.02367166 0.11657265 0.013810373
000070 9f 6d cb 3d db e4 aa 3c 57 38 ec bd 66 7d 54 3d
       0.09933018 0.02086108 -0.115341835 0.0518774
000080 5d 2e 31 3c 0e c9 fc 3c 40 9b d3 bd 26 c7 87 be
       0.0108142765 0.03085759 -0.10332346 -0.26519126
000090 b1 3d 25 bd 3b da 8d 3d 99 2d 42 bd b7 ba 22 bd
       -0.040342037 0.0692639 -0.047406767 -0.039728846
0000a0 1d a6 8c bc 99 6a 2f bd 7d a4 17 be 1e d5 9d 3d
       -0.017169053 -0.04282627 -0.14808841 0.077066645
0000b0 b4 37 38 be 33 77 ed bd f9 45 17 bd 66 44 f8 3d
       -0.17989999 -0.11595001 -0.036931966 0.12122421
0000c0 7a cd ec bd 85 46 3a 3d 84 e9 af bd 36 2d 56 bc
       -0.11562629 0.04547741 -0.085894614 -0.013072303
0000d0 4c 09 88 bd ac 0b 76 3d 40 d6 57 be f9 89 99 3c
       -0.06642398 0.060069725 -0.21077824 0.018742548
0000e0 fe c4 7c 3b 07 1e 63 3d 08 ba 9d 3d d7 96 03 be
       0.0038569565 0.05544856 0.07701498 -0.1285051
0000f0 7a 59 2e 3d 49 bd de bd 9f 38 42 be fc e4 dd bd
       0.0425658 -0.10875947 -0.18966912 -0.10834691
000100 fc aa af bd e2 a5 b8 3d 28 77 1d bd 11 df 64 bd
       -0.085775346 0.09016015 -0.038443714 -0.055876795
000110 f6 27 e6 bd db 9d 68 bd f0 4a 11 3d a5 cf a1 bd
       -0.11238091 -0.056791168 0.035471857 -0.07900933
000120 ac e5 0d 3d a1 30 40 3e 3a 4d 00 3e a2 f7 ab bd
       0.03464286 0.1876855 0.1252946 -0.083968416
000130 25 c7 ae bd 93 b3 ca 3d 2a 62 9b bd ee 94 81 bd
       -0.085340776 0.09897532 -0.07587083 -0.06327234
000140 91 0b 0f be ef a3 ca 3d 14 94 aa 3c 20 ca 3d bd
       -0.13969256 0.09894549 0.020822562 -0.04633534
000150 3f 89 48 3d c4 cf c5 bd e7 b6 16 bd 72 43 b7 3d
       0.048959013 -0.09658769 -0.036795523 0.08948411
000160 a8 5f 7e bd 8e cc 93 3c 40 2e ca bd 98 69 8f bd
       -0.062102944 0.018041875 -0.09872103 -0.07002562
000170 e3 d8 0c 3e 3d 6e e2 bc 86 65 46 3c ec a7 40 3d
       0.1375461 -0.027640456 0.012109166 0.047035143
000180 72 86 17 bd 37 5c c3 3d 30 aa fc bd f0 eb 8c 3e
       -0.03699345 0.09539073 -0.12337148 0.27523756
000190 d4 e7 2b be 86 4d e2 3b 56 c1 01 3c 71 8c 2b bb
       -0.16787654 0.006906214 0.00791963 -0.002617624
0001a0 55 cc dd bd 2b cb 88 3d a1 9c 31 bd 07 d2 fa bc
       -0.10829989 0.06679376 -0.043362264 -0.030617727
0001b0 a1 27 f6 3d 20 7d 87 bb 6a a9 07 bd 4e 53 94 bd
       0.12019277 -0.004134789 -0.03312055 -0.072424516
0001c0 c8 d1 20 bd fb 66 fd 3d 11 73 13 bd 0f 40 66 3d
       -0.039262563 0.123731576 -0.035998408 0.056213435
0001d0 3b 83 bc bd 49 ef 28 3d e8 2e 19 3d ec bf 3d bc
       -0.09204718 0.041243825 0.03739825 -0.011581402
0001e0 94 4a 00 3e 9b 6e 95 bd 70 01 56 3d 53 5a 4a 3d
       0.1252845 -0.07296487 0.052247465 0.049402546
0001f0 e6 9c e8 3d ab 30 fd 3d ba 24 2a bd eb 44 02 3e
       0.11358051 0.12362798 -0.04153893 0.12721603
000200 04 3f 9b bd f3 15 d8 3c 50 05 34 bd 12 8b 29 3e
       -0.07580379 0.026377654 -0.04395038 0.16556957
000210 29 25 7c be 24 42 af 3d c0 f0 96 3b 98 5c b6 bd
       -0.2462355 0.08557537 0.0046063364 -0.089043796
000220 81 dc da bd 96 b7 c2 bd d5 f3 19 3d 6b 78 ca 3d
       -0.10686589 -0.095076725 0.037586052 0.09886249
000230 29 96 72 bc cc 27 34 be e8 a3 e2 bc a8 73 b4 bd
       -0.014806309 -0.17593306 -0.027666047 -0.08811122
000240 34 b3 22 be 8a 54 93 bd 34 25 b5 3d 1d 81 36 be
       -0.15888673 -0.07193859 0.088449866 -0.1782269
000250 10 e5 d1 3c 6a 46 f9 bd 20 46 ea bd 09 6d 25 bd
       0.02562192 -0.121716335 -0.114391565 -0.040387187
000260 65 f3 4e bd 60 67 1f bd b0 c9 b9 3d 96 c3 f7 3c
       -0.050525088 -0.038916945 0.09071672 0.03024463
000270 99 c3 24 3d a3 f0 08 3e d5 b1 04 3c 56 37 09 be
       0.0402256 0.13373046 0.008099039 -0.13400015
000280 9a 93 23 bb 73 93 4b 3d 80 6c f2 bb 60 2e 2b bd
       -0.0024959804 0.049701165 -0.007398188 -0.041792274
000290 43 a0 2d bd c1 9d c8 3d ac ad d7 bd 48 67 c3 3d
       -0.042389166 0.09795714 -0.10531172 0.09541184
0002a0 aa be 4a 3d 45 ad 02 be 09 f3 ef 3c 49 68 63 3d
       0.049498238 -0.1276141 0.029290693 0.055519376
0002b0 0f 0f 4d 3d 8f e5 1d 3d 64 c6 94 bd 7f 99 d8 3c
       0.05006319 0.038549002 -0.072644025 0.02644038
0002c0 a5 09 3e bd 59 a2 aa 3b 17 34 b6 bd f1 e2 15 3e
       -0.046395916 0.0052073416 -0.08896654 0.14637353
0002d0 d8 d7 cd bd 5e 39 4d bc f9 37 9e bd ce 82 05 bd
       -0.100509346 -0.012525884 -0.0772552 -0.03259545
0002e0 bb 71 84 3d b9 3b 23 be 88 90 22 bd 8f 5b cc b9
       0.06467005 -0.15940751 -0.039688617 -0.0003897813
0002f0 39 36 49 bd 4d a8 95 3c b6 17 7d bd 2e cd 12 bd
       -0.049123976 0.018268729 -0.06179019 -0.035840206
000300 d4 4b af bd 6a 38 96 bc bc 75 aa 3d 16 17 38 3d
       -0.08559385 -0.018337447 0.08323237 0.04494389
000310 0c df 21 be d3 0b ae 3d c1 12 86 3d 0d 90 43 bd
       -0.15807742 0.08498349 0.06546546 -0.0477448
000320 5c 63 1c be f6 5d 0d bd 8f 0d 7a 3d 51 01 eb 3d
       -0.15272278 -0.034513436 0.061048087 0.114748605
000330 cc 03 7e 3d e7 c3 f0 bb cb 04 67 bd 7e ba c6 bd
       0.06201534 -0.007347572 -0.056401055 -0.09703539
000340 ea 58 14 bd fb ab a3 3d 02 83 35 3c 62 d4 9f 3c
       -0.036217608 0.07991787 0.011078598 0.019510452
000350 0c 88 84 3c b3 8d 65 3d e7 a1 15 3d 3f b1 89 3d
       0.016178153 0.056043338 0.036531355 0.0672326
000360 47 b0 a5 bc 47 2c d5 3d d0 38 66 3d 7b 85 09 3e
       -0.020225657 0.10408836 0.056206524 0.13429825
000370 4d 18 92 bd 46 f1 b3 3d 97 e4 e0 bd 6f 2f a7 3d
       -0.07133541 0.08786254 -0.109811 0.08163344
000380 e6 51 a9 bd 61 38 2a bd 80 ad c8 bb c0 28 a6 bd
       -0.08267574 -0.041557673 -0.0061241984 -0.08113241
000390 3b 3e e7 bd 96 2d 1e 3e bf f8 03 bd 1c 69 90 bd
       -0.112911664 0.15447077 -0.032219645 -0.07051298
0003a0 7c 62 d2 bd 04 8b 1c 3d 5c d7 26 be a8 08 5f bd
       -0.10272691 0.038218513 -0.1629309 -0.054451615
0003b0 e9 f0 80 bd 30 2e 09 3e 48 ca 27 3c a0 91 31 be
       -0.0629595 0.13396525 0.010241099 -0.17340708
0003c0 ff e4 ae bd 39 b5 88 bd bb 17 0f 3d 30 32 2a 3d
       -0.08539771 -0.066751905 0.03493474 0.04155177
0003d0 df 2d cb bc a0 1b 96 3b 19 f7 46 3d 5d 35 bc bd
       -0.024802146 0.00458093 0.048575494 -0.09189866
0003e0 ea 21 0f bd e6 1a 4d 3d 10 d7 de 3d 16 17 90 bd
       -0.034944452 0.05007448 0.10880864 -0.07035653
0003f0 f5 df b8 3d e0 54 27 bd f5 a0 60 bd 49 50 e9 bd
       0.090270914 -0.040852427 -0.054841 -0.11392266

sequential/dense/BiasAdd/ReadVariableOp f4 [64]
000000 5a 65 ec bc 95 d2 88 3d 5f 1a 9b 3d 7c 6d 84 3d
       -0.028856922 0.0668079 0.07573389 0.06466195
000010 9f 4e 08 bd 34 30 d6 bc 90 de 39 bd b0 67 06 bd
       -0.033278104 -0.026146032 -0.045378268 -0.032813728
000020 4e 02 86 bd 5c e7 43 bc fa 42 17 bc 88 94 e2 3b
       -0.06543408 -0.011957016 -0.009232277 0.006914679
000030 95 bc 50 3c dd 51 66 3d 9b 54 1a 3b fa 45 f0 bc
       0.012740274 0.056230415 0.0023548964 -0.029330242
000040 85 d7 9b 3d 4a 5b b8 3c a4 14 de b9 8f 82 90 bc
       0.076094665 0.022504468 -0.00042358518 -0.01764038
000050 a7 4e 97 bd 99 5b 0b 3d 1e c2 86 3c 14 c3 7c 3d
       -0.073880486 0.0340229 0.016449984 0.06170948
000060 8c c9 05 bd 0d 44 09 bc f8 a9 70 3c 40 7b 99 3d
       -0.032662913 -0.008378041 0.014688961 0.07494211
000070 b8 00 25 bc 1a 17 27 bd 1f 60 33 3d e0 3c 1b bd
       -0.010070972 -0.040793516 0.04379284 -0.03789985
000080 d1 82 dd bb 0b c0 8b 3d 7a 9f 83 bc 7b 1b 51 3d
       -0.0067599793 0.06823739 -0.016067255 0.051051598
000090 66 2b 4f 3d bf a4 bd bb 12 1d 33 bd 90 c6 2f 3d
       0.050578497 -0.0057874615 -0.043728895 0.042913973
0000a0 40 64 a5 3c 92 06 5c 3c 77 74 96 bc b5 03 98 39
       0.020189404 0.013429301 -0.018366082 0.0002899446
0000b0 97 d1 4f 3d 06 1b 8f bc 64 72 4f 3c ee a9 83 3d
       0.05073699 -0.01746894 0.01266155 0.06428896
0000c0 65 49 06 bc b2 c7 f6 bc b4 4d ed bc 9b 84 60 bc
       -0.00819621 -0.030124519 -0.028967716 -0.013703491
0000d0 b6 38 a4 3d df 7b 32 3d 41 a4 63 3d 64 3b 85 3d
       0.08018629 0.043575164 0.055576567 0.065054685
0000e0 d3 bf 1e 3d 55 99 11 bd 7c ef 13 bd 89 99 67 3d
       0.038757157 -0.03554662 -0.036117062 0.056542907
0000f0 5a e5 d6 ba 07 8f 1b 3d d1 6a b0 bc 13 1d 82 3c
       -0.0016395256 0.0379782 -0.021535309 0.015883004

sequential/dense/MatMul f4 [64, 64]
000000 43 6f 4f be 42 84 e4 bd d8 6e ec bd ae ed a0 3d
       -0.20257287 -0.11158039 -0.11544579 0.07857834
000010 21 93 8a 3e 42 af 11 be be 03 ad bd cb 22 3f bd
       0.27065375 -0.14227012 -0.084479794 -0.04666404
000020 34 bc 13 bd 55 66 bb 3d 2d 8a 9b bd 9b 5f c7 3d
       -0.036068156 0.09150378 -0.07594714 0.09735032
000030 8c 77 e7 bc d7 9f 67 3e 85 f4 a6 3d aa 44 23 3e
       -0.028255247 0.22619568 0.08152107 0.15944162
000040 4c 7d b9 3d 32 77 6f be 9a 4b d5 bd 94 46 5c 3d
       0.090571016 -0.23385313 -0.104148105 0.053778246
000050 77 8c 22 3d 5c ba 1f be 4b c4 51 be 1c 40 90 bd
       0.03968474 -0.15598434 -0.20485036 -0.07043478
000060 b5 f2 09 be c6 e5 23 bd c4 e9 0d 3e 2b 5d 71 3d
       -0.13471492 -0.04001405 0.13858706 0.058926743
000070 2a 88 82 bd a2 94 c2 3d fb c0 7c 3e 00 f8 d9 3d
       -0.063736275 0.09501006 0.24682991 0.10643005
000080 fe 41 10 be 1e 95 92 bd d7 9b 80 bd 3a 56 35 bd
       -0.14087674 -0.07157348 -0.06279724 -0.044271685
000090 c6 64 f0 bd 74 52 43 bd 51 2d f3 bc 52 11 19 be
       -0.11737971 -0.047686055 -0.029684694 -0.14948013
0000a0 bd 10 18 3e 0c 22 b5 bd 8d a7 1e 3e f8 b4 ea 3c
       0.14850135 -0.088443846 0.15493603 0.028650746
0000b0 25 06 82 bd 3b 26 f4 3b 77 51 2c be 3f f5 08 bd
       -0.06348828 0.0074508465 -0.16827951 -0.03343701
0000c0 d5 57 cc 3b 57 0d 66 3e 03 88 6b 3e ca 13 09 3e
       0.0062360563 0.22466026 0.23001103 0.13386455
0000d0 1c db 38 3e 38 68 6a 3a 92 2b 7b be 4f df 3d bc
       0.18052334 0.00089419214 -0.2452834 -0.011588885
0000e0 c2 f1 75 be 1d 00 68 bd 33 4f 5c be 78 5d 6c be
       -0.24018005 -0.056640733 -0.21514587 -0.2308253
0000f0 e5 2f 39 3e d8 6b 45 3e 17 c3 6d be f1 b1 ce bd
       0.18084677 0.1927942 -0.23218952 -0.100925334
000100 00 61 7c be 23 0d d7 bd bc 92 69 be 13 57 50 3e
       -0.24646378 -0.105005525 -0.22809881 0.20345716
000110 44 07 e8 3c 4c 03 8a be d5 5c 00 bd 80 ac a5 be
       0.028323777 -0.2695564 -0.03133853 -0.3235817
000120 55 49 4d be f2 20 1d be 2c e2 72 be f2 42 04 3e
       -0.20047505 -0.15344599 -0.2371909 0.12916163
000130 33 71 78 be dd a2 69 be ed 23 11 3e 3a c9 8c 3d
       -0.24261932 -0.22816034 0.14173861 0.068743184
000140 fe e9 96 3e fd 6d 48 be 9b f9 1a 3e 58 29 95 bd
       0.29475397 -0.19573207 0.1513428 -0.07283276
000150 36 2f 8c bd 94 c9 0a 3e f8 40 55 3e c6 36 60 be
       -0.06844942 0.13553458 0.20825565 -0.21895894
000160 3f 76 39 3d 4b eb 15 be 03 92 38 be fa 84 90 3e
       0.045278784 -0.14640538 -0.18024449 0.28226453
000170 ba fc d6 bd 88 3b 16 3e 32 54 c5 3d 53 11 5f be
       -0.104974225 0.14671147 0.096351996 -0.21783952
000180 1c a2 08 3e 3b 87 b4 3e 74 78 9d bd 29 97 c0 bd
       0.1334309 0.35259423 -0.0768899 -0.094038315
000190 e5 eb 1c be b2 2c 21 3e 4b 8e 1b 3e 14 75 32 be
       -0.15324362 0.15739706 0.15190999 -0.17427474
0001a0 79 1f 3b be 5e b9 c5 ba fa 85 dc bd 45 bd 15 be
       -0.18273725 -0.0015085151 -0.107677415 -0.14622982
0001b0 be 19 c1 3e d7 fc 17 3e ff 67 5e 3e d0 ae 34 bc
       0.37714952 0.14842544 0.21719359 -0.011028007
0001c0 30 10 08 be 43 f8 90 bd 76 f3 d0 bd f8 a0 0e be
       -0.13287425 -0.07078602 -0.102026865 -0.13928592
0001d0 67 86 fe bd e9 3e a8 3d 8d d8 23 be db c5 b3 3e
       -0.12427979 0.08215124 -0.16000576 0.3511189
0001e0 59 d9 31 3e c2 3c 1b 3d 8c 58 95 bd b4 68 50 3d
       0.17368068 0.03789974 -0.072922796 0.050881103
0001f0 dc 1b 07 3e 2f 18 63 be 46 89 5f 3d 4c dc 56 3c
       0.13194221 -0.22177194 0.054574274 0.013114046
000200 5f 99 e9 bd 92 30 f0 bd 64 7c 91 3d 12 e6 8b 3e
       -0.11406206 -0.11728014 0.07103804 0.27323967
000210 21 10 12 be 0a e1 7f be 50 e3 3c be 28 fb 64 be
       -0.14263965 -0.2498819 -0.18446088 -0.22361434
000220 11 df 70 be 6c 65 aa bd d6 7f 3c 3d 4a 03 52 bd
       -0.23522593 -0.08320126 0.04602035 -0.051272668
000230 3b ff 17 bc 6a 82 6b be e3 9f 96 bc 2a 03 ef bd
       -0.00927716 -0.22998968 -0.018386787 -0.11670525
000240 20 2a 7d 3e b6 2b 39 be 2f e7 d5 bd 3c e4 10 be
       0.247231 -0.1808308 -0.104444854 -0.14149565
000250 60 c6 22 3e 6b af e9 bd 02 91 05 be 31 83 9e bc
       0.15895987 -0.114104114 -0.13043597 -0.019349666
000260 e9 66 d0 bd c0 d5 4b be d2 1a 4a be 8c 61 85 3d
       -0.101758786 -0.19905758 -0.19736794 0.06512746
000270 79 42 65 3e 7f 13 41 3c 38 2b 19 3d 93 3d 62 be
       0.22388639 0.011784433 0.037394732 -0.22093801
000280 b7 7a 3e 3d a0 23 cf 3d c1 d9 02 be 0b 0d 18 3d
       0.04650375 0.10114217 -0.12778379 0.037121814
000290 cf f2 d0 bd c8 63 aa 3d 40 5e 84 bd 19 73 ea bd
       -0.10202562 0.08319813 -0.06463289 -0.114477344
0002a0 ab 9a 9a bd 1d db 64 3d 96 20 ae 3d 28 00 82 3d
       -0.07549032 0.055873025 0.08502309 0.06347686
0002b0 64 78 4a 3e 46 1b 97 3d 9d 8c 5a 3e b9 88 1a be
       0.19772488 0.07378249 0.21342702 -0.15091218
0002c0 41 61 18 3d 60 fd bc bd 24 3b 20 be 6d 00 06 be
       0.037202124 -0.09228015 -0.1564756 -0.130861
0002d0 22 3f 98 3d e1 c2 5b 3e e8 90 17 be 97 ae 2e 3e
       0.07433917 0.21461059 -0.14801371 0.17058788
0002e0 03 c5 08 3e 2a 20 80 3e e2 b7 e1 3c f8 18 51 3d
       0.13356404 0.2502454 0.027553502 0.051049203
0002f0 51 22 96 3e be e4 e4 3d 5f df af 3d 84 e9 29 3d
       0.29323056 0.111764416 0.085875265 0.041482463
000300 56 0c 28 be 87 00 65 be 2c c0 1f 3e 56 58 22 3e
       -0.16410956 -0.22363482 0.15600652 0.1585401
000310 32 0e 33 be 30 e6 3b be 73 24 17 be 66 37 9c bc
       -0.17485884 -0.18349528 -0.14759998 -0.019069385
000320 47 34 b6 bd 8f 9a 74 be 79 b0 89 bd ba 2a 54 3e
       -0.0889669 -0.23887084 -0.067231126 0.20719424
000330 28 30 a9 bd a9 bf 66 be 2e 30 2c be 52 d5 12 3e
       -0.08261138 -0.2253405 -0.16815254 0.14339188
000340 f5 0b 1e 3e f9 0b 91 be 21 15 bd 3d 47 9d 09 be
       0.15434249 -0.28329447 0.09232546 -0.13438903
000350 62 f8 ab 3d c7 0c d0 3c 0a 97 db 3c a1 ab 7b be
       0.08396985 0.025396718 0.02680542 -0.2457719
000360 8d 1e 1c be 11 a7 6a be 70 54 81 be 8b 76 6c 3e
       -0.15246029 -0.22915293 -0.25259733 0.23092096
000370 c2 8a 4b 3e 71 7a 8d 3c 8c 3d ca bd 5a ff 37 be
       0.1987715 0.017270299 -0.098750204 -0.17968503
000380 6f 75 45 be c7 fc 48 3e 51 8b 05 be 2e da d4 bd
       -0.19283079 0.19627677 -0.13041426 -0.10393177
000390 82 36 ce 3d b8 fa 9e 3d 57 67 80 3e de 02 10 be
       0.1006899 0.077626646 0.25078842 -0.14063594
0003a0 ec c3 07 be 05 84 7f 3d ba 28 56 be 29 83 08 be
       -0.13258332 0.062381763 -0.20913973 -0.13331284
0003b0 95 ef b5 3d 59 1f 3c 3d e6 d8 45 3e fa dc 77 bd
       0.08883587 0.045928333 0.19321021 -0.060513474
0003c0 45 66 b4 bd 62 5e 57 bc 84 4f 8b be 27 75 88 bd
       -0.08808569 -0.013145061 -0.27209103 -0.0666297
0003d0 3c ea 16 bc 2a dc b3 3e d7 79 54 be 6f 59 12 3e
       -0.009211119 0.3512891 -0.20749603 0.14291929
0003e0 03 be 5f 3e de 2c 46 3e 72 9e 00 3e f3 f9 ce bd
       0.21849827 0.19353053 0.12560442 -0.10106268
0003f0 03 e9 5a 3e 55 fa 27 3d 94 42 8a 3e f5 3d b0 3d
       0.2137795 0.04101022 0.2700392 0.08605567

sequential/dense_1/MatMul f4 [1, 64]
000000 0a 11 b1 be 04 14 86 3e 63 01 f2 3e d4 1b 99 3e
       -0.34583312 0.26187146 0.47266683 0.29904044
000010 0b dd 4c 3e 4e 15 88 be 79 e2 df be 67 20 30 3e
       0.20006196 -0.26578754 -0.43727472 0.1719986
000020 71 ab 81 bd 35 de ef be ab 5a bc be af ed d3 3d
       -0.06331528 -0.46849218 -0.36787924 0.10348069
000030 f0 93 c0 be 35 25 56 3e 59 32 b8 be 67 43 ac be
       -0.37612867 0.20912631 -0.35975912 -0.33645174
000040 56 9a 83 3e 2f d3 df be 29 37 98 be 8a 1d 9a be
       0.25703686 -0.43715808 -0.29729584 -0.30100662
000050 ca 77 43 3e 33 e9 09 be 92 d7 80 be 62 64 bd 3e
       0.19088665 -0.13467865 -0.25164467 0.36990649
000060 e1 98 97 be 00 aa ba be c0 e8 ac be bf 6a 44 3e
       -0.29608825 -0.36457825 -0.33771324 0.19181345
000070 60 8d 09 be 7d dc 9e be 1a 9a 03 3e 93 4c c3 be
       -0.13432837 -0.31027594 0.12851754 -0.3814436
000080 79 34 f4 be 4b 02 36 3e 86 b9 d0 3d 5e c9 fd 3e
       -0.47696283 0.17774312 0.10191636 0.49567693
000090 c5 21 93 3e d5 2d d2 be e1 8a 63 be 4e 22 df 3e
       0.28736702 -0.41050592 -0.22220947 0.4358086
0000a0 17 d6 bc 3e b0 58 b8 be 0c e6 e0 be b9 3c 08 be
       0.36882088 -0.36005163 -0.43925512 -0.13304414
0000b0 8c 95 e0 3e d4 d3 c7 be 7d 7a 88 be d4 d6 8d 3e
       0.43864095 -0.390288 -0.2665595 0.27702963
0000c0 02 65 da be 55 bf 38 be 17 3b 02 3e 53 b6 80 be
       -0.42655188 -0.18041737 0.12717853 -0.25139102
0000d0 84 6c e8 3e 38 a4 9c be 68 3e f4 3e c9 5e 1e 3e
       0.4539529 -0.3059404 0.47703862 0.15465845
0000e0 04 b3 f6 3e 12 20 c8 be 4c f1 cf be 69 88 01 3f
       0.48183453 -0.39086968 -0.40613782 0.5059877
0000f0 f6 9f 8b be a1 fc da 3e 93 f3 c3 be 96 23 b1 3e
       -0.27270478 0.42770866 -0.3827177 0.34597462
